…
ks.3.norm1.bias', 'decoder.blocks.3.attn.q_bias', 'decoder.blocks.3.attn.v_bias', 'decoder.blocks.3.attn.qkv.weight', 'decoder.blocks.3.attn.proj.weight', 'decoder.blocks.3.attn.proj.bias', 'decoder.blocks.3.norm2.weight', 'decoder.blocks.3.norm2.bias', 'decoder.blocks.3.mlp.fc1.weight', 'decoder.blocks.3.mlp.fc1.bias', 'decoder.blocks.3.mlp.fc2.weight', 'decoder.blocks.3.mlp.fc2.bias', 'decoder.norm.weight', 'decoder.norm.bias', 'decoder.head.weight', 'decoder.head.bias', 'encoder_to_decoder.weight', 'norm.weight', 'norm.bias']
Model = VisionTransformer(
  (patch_embed): PatchEmbed(
    (proj): Conv3d(3, 512, kernel_size=(2, 16, 16), stride=(2, 16, 16))
  )
  (pos_drop): Dropout(p=0.0, inplace=False)
  (blocks): ModuleList(
    (0): LGBlock(
      (first_attn_norm0): LayerNorm((512,), eps=1e-06, elementwise_affine=True)
      (first_attn): GeneralAttention(
        (q): Linear(in_features=512, out_features=512, bias=False)
        (kv): Linear(in_features=512, out_features=1024, bias=False)
        (attn_drop): Dropout(p=0.0, inplace=False)
        (proj): Linear(in_features=512, out_features=512, bias=True)
        (proj_drop): Dropout(p=0.0, inplace=False)
      )
      (second_attn_norm0): LayerNorm((512,), eps=1e-06, elementwise_affine=True)
      (second_attn): GeneralAttention(
        (q): Linear(in_features=512, out_features=512, bias=False)
        (kv): Linear(in_features=512, out_features=1024, bias=False)
        (attn_drop): Dropout(p=0.0, inplace=False)
        (proj): Linear(in_features=512, out_features=512, bias=True)
        (proj_drop): Dropout(p=0.0, inplace=False)
      )
      (third_attn_norm0): LayerNorm((512,), eps=1e-06, elementwise_affine=True)
      (third_attn_norm1): LayerNorm((512,), eps=1e-06, elementwise_affine=True)
      (third_attn): GeneralAttention(
        (q): Linear(in_features=512, out_features=512, bias=False)
        (kv): Linear(in_features=512, out_features=1024, bias=False)
        (attn_drop): Dropout(p=0.0, inplace=False)
        (proj): Linear(in_features=512, out_features=512, bias=True)
        (proj_drop): Dropout(p=0.0, inplace=False)
      )
      (drop_path): Identity()
      (norm2): LayerNorm((512,), eps=1e-06, elementwise_affine=True)
      (mlp): Mlp(
        (fc1): Linear(in_features=512, out_features=2048, bias=True)
        (act): GELU()
        (fc2): Linear(in_features=2048, out_features=512, bias=True)
        (drop): Dropout(p=0.0, inplace=False)
      )
    )
    (1): LGBlock(
      (first_attn_norm0): LayerNorm((512,), eps=1e-06, elementwise_affine=True)
      (first_attn): GeneralAttention(
        (q): Linear(in_features=512, out_features=512, bias=False)
        (kv): Linear(in_features=512, out_features=1024, bias=False)
        (attn_drop): Dropout(p=0.0, inplace=False)
        (proj): Linear(in_features=512, out_features=512, bias=True)
        (proj_drop): Dropout(p=0.0, inplace=False)
      )
      (second_attn_norm0): LayerNorm((512,), eps=1e-06, elementwise_affine=True)
      (second_attn): GeneralAttention(
        (q): Linear(in_features=512, out_features=512, bias=False)
        (kv): Linear(in_features=512, out_features=1024, bias=False)
        (attn_drop): Dropout(p=0.0, inplace=False)
        (proj): Linear(in_features=512, out_features=512, bias=True)
        (proj_drop): Dropout(p=0.0, inplace=False)
      )
      (third_attn_norm0): LayerNorm((512,), eps=1e-06, elementwise_affine=True)
      (third_attn_norm1): LayerNorm((512,), eps=1e-06, elementwise_affine=True)
      (third_attn): GeneralAttention(
        (q): Linear(in_features=512, out_features=512, bias=False)
        (kv): Linear(in_features=512, out_features=1024, bias=False)
        (attn_drop): Dropout(p=0.0, inplace=False)
        (proj): Linear(in_features=512, out_features=512, bias=True)
        (proj_drop): Dropout(p=0.0, inplace=False)
      )
      (drop_path): DropPath(p=0.006666666828095913)
      (norm2): LayerNorm((512,), eps=1e-06, elementwise_affine=True)
      (mlp): Mlp(
        (fc1): Linear(in_features=512, out_features=2048, bias=True)
        (act): GELU()
        (fc2): Linear(in_features=2048, out_features=512, bias=True)
        (drop): Dropout(p=0.0, inplace=False)
      )
    )
    (2): LGBlock(
      (first_attn_norm0): LayerNorm((512,), eps=1e-06, elementwise_affine=True)
      (first_attn): GeneralAttention(
        (q): Linear(in_features=512, out_features=512, bias=False)
        (kv): Linear(in_features=512, out_features=1024, bias=False)
        (attn_drop): Dropout(p=0.0, inplace=False)
        (proj): Linear(in_features=512, out_features=512, bias=True)
        (proj_drop): Dropout(p=0.0, inplace=False)
      )
      (second_attn_norm0): LayerNorm((512,), eps=1e-06, elementwise_affine=True)
      (second_attn): GeneralAttention(
        (q): Linear(in_features=512, out_features=512, bias=False)
        (kv): Linear(in_features=512, out_features=1024, bias=False)
        (attn_drop): Dropout(p=0.0, inplace=False)
        (proj): Linear(in_features=512, out_features=512, bias=True)
        (proj_drop): Dropout(p=0.0, inplace=False)
      )
      (third_attn_norm0): LayerNorm((512,), eps=1e-06, elementwise_affine=True)
      (third_attn_norm1): LayerNorm((512,), eps=1e-06, elementwise_affine=True)
      (third_attn): GeneralAttention(
        (q): Linear(in_features=512, out_features=512, bias=False)
        (kv): Linear(in_features=512, out_features=1024, bias=False)
        (attn_drop): Dropout(p=0.0, inplace=False)
        (proj): Linear(in_features=512, out_features=512, bias=True)
        (proj_drop): Dropout(p=0.0, inplace=False)
      )
      (drop_path): DropPath(p=0.013333333656191826)
      (norm2): LayerNorm((512,), eps=1e-06, elementwise_affine=True)
      (mlp): Mlp(
        (fc1): Linear(in_features=512, out_features=2048, bias=True)
        (act): GELU()
        (fc2): Linear(in_features=2048, out_features=512, bias=True)
        (drop): Dropout(p=0.0, inplace=False)
      )
    )
    (3): LGBlock(
      (first_attn_norm0): LayerNorm((512,), eps=1e-06, elementwise_affine=True)
      (first_attn): GeneralAttention(
        (q): Linear(in_features=512, out_features=512, bias=False)
        (kv): Linear(in_features=512, out_features=1024, bias=False)
        (attn_drop): Dropout(p=0.0, inplace=False)
        (proj): Linear(in_features=512, out_features=512, bias=True)
        (proj_drop): Dropout(p=0.0, inplace=False)
      )
      (second_attn_norm0): LayerNorm((512,), eps=1e-06, elementwise_affine=True)
      (second_attn): GeneralAttention(
        (q): Linear(in_features=512, out_features=512, bias=False)
        (kv): Linear(in_features=512, out_features=1024, bias=False)
        (attn_drop): Dropout(p=0.0, inplace=False)
        (proj): Linear(in_features=512, out_features=512, bias=True)
        (proj_drop): Dropout(p=0.0, inplace=False)
      )
      (third_attn_norm0): LayerNorm((512,), eps=1e-06, elementwise_affine=True)
      (third_attn_norm1): LayerNorm((512,), eps=1e-06, elementwise_affine=True)
      (third_attn): GeneralAttention(
        (q): Linear(in_features=512, out_features=512, bias=False)
        (kv): Linear(in_features=512, out_features=1024, bias=False)
        (attn_drop): Dropout(p=0.0, inplace=False)
        (proj): Linear(in_features=512, out_features=512, bias=True)
        (proj_drop): Dropout(p=0.0, inplace=False)
      )
      (drop_path): DropPath(p=0.019999999552965164)
      (norm2): LayerNorm((512,), eps=1e-06, elementwise_affine=True)
      (mlp): Mlp(
        (fc1): Linear(in_features=512, out_features=2048, bias=True)
        (act): GELU()
        (fc2): Linear(in_features=2048, out_features=512, bias=True)
        (drop): Dropout(p=0.0, inplace=False)
      )
    )
    (4): LGBlock(
      (first_attn_norm0): LayerNorm((512,), eps=1e-06, elementwise_affine=True)
      (first_attn): GeneralAttention(
        (q): Linear(in_features=512, out_features=512, bias=False)
        (kv): Linear(in_features=512, out_features=1024, bias=False)
        (attn_drop): Dropout(p=0.0, inplace=False)
        (proj): Linear(in_features=512, out_features=512, bias=True)
        (proj_drop): Dropout(p=0.0, inplace=False)
      )
      (second_attn_norm0): LayerNorm((512,), eps=1e-06, elementwise_affine=True)
      (second_attn): GeneralAttention(
        (q): Linear(in_features=512, out_features=512, bias=False)
        (kv): Linear(in_features=512, out_features=1024, bias=False)
        (attn_drop): Dropout(p=0.0, inplace=False)
        (proj): Linear(in_features=512, out_features=512, bias=True)
        (proj_drop): Dropout(p=0.0, inplace=False)
      )
      (third_attn_norm0): LayerNorm((512,), eps=1e-06, elementwise_affine=True)
      (third_attn_norm1): LayerNorm((512,), eps=1e-06, elementwise_affine=True)
      (third_attn): GeneralAttention(
        (q): Linear(in_features=512, out_features=512, bias=False)
        (kv): Linear(in_features=512, out_features=1024, bias=False)
        (attn_drop): Dropout(p=0.0, inplace=False)
        (proj): Linear(in_features=512, out_features=512, bias=True)
        (proj_drop): Dropout(p=0.0, inplace=False)
      )
      (drop_path): DropPath(p=0.02666666731238365)
      (norm2): LayerNorm((512,), eps=1e-06, elementwise_affine=True)
      (mlp): Mlp(
        (fc1): Linear(in_features=512, out_features=2048, bias=True)
        (act): GELU()
        (fc2): Linear(in_features=2048, out_features=512, bias=True)
        (drop): Dropout(p=0.0, inplace=False)
      )
    )
    (5): LGBlock(
      (first_attn_norm0): LayerNorm((512,), eps=1e-06, elementwise_affine=True)
      (first_attn): GeneralAttention(
        (q): Linear(in_features=512, out_features=512, bias=False)
        (kv): Linear(in_features=512, out_features=1024, bias=False)
        (attn_drop): Dropout(p=0.0, inplace=False)
        (proj): Linear(in_features=512, out_features=512, bias=True)
        (proj_drop): Dropout(p=0.0, inplace=False)
      )
      (second_attn_norm0): LayerNorm((512,), eps=1e-06, elementwise_affine=True)
      (second_attn): GeneralAttention(
        (q): Linear(in_features=512, out_features=512, bias=False)
        (kv): Linear(in_features=512, out_features=1024, bias=False)
        (attn_drop): Dropout(p=0.0, inplace=False)
        (proj): Linear(in_features=512, out_features=512, bias=True)
        (proj_drop): Dropout(p=0.0, inplace=False)
      )
      (third_attn_norm0): LayerNorm((512,), eps=1e-06, elementwise_affine=True)
      (third_attn_norm1): LayerNorm((512,), eps=1e-06, elementwise_affine=True)
      (third_attn): GeneralAttention(
        (q): Linear(in_features=512, out_features=512, bias=False)
        (kv): Linear(in_features=512, out_features=1024, bias=False)
        (attn_drop): Dropout(p=0.0, inplace=False)
        (proj): Linear(in_features=512, out_features=512, bias=True)
        (proj_drop): Dropout(p=0.0, inplace=False)
      )
      (drop_path): DropPath(p=0.03333333507180214)
      (norm2): LayerNorm((512,), eps=1e-06, elementwise_affine=True)
      (mlp): Mlp(
        (fc1): Linear(in_features=512, out_features=2048, bias=True)
        (act): GELU()
        (fc2): Linear(in_features=2048, out_features=512, bias=True)
        (drop): Dropout(p=0.0, inplace=False)
      )
    )
    (6): LGBlock(
      (first_attn_norm0): LayerNorm((512,), eps=1e-06, elementwise_affine=True)
      (first_attn): GeneralAttention(
        (q): Linear(in_features=512, out_features=512, bias=False)
        (kv): Linear(in_features=512, out_features=1024, bias=False)
        (attn_drop): Dropout(p=0.0, inplace=False)
        (proj): Linear(in_features=512, out_features=512, bias=True)
        (proj_drop): Dropout(p=0.0, inplace=False)
      )
      (second_attn_norm0): LayerNorm((512,), eps=1e-06, elementwise_affine=True)
      (second_attn): GeneralAttention(
        (q): Linear(in_features=512, out_features=512, bias=False)
        (kv): Linear(in_features=512, out_features=1024, bias=False)
        (attn_drop): Dropout(p=0.0, inplace=False)
        (proj): Linear(in_features=512, out_features=512, bias=True)
        (proj_drop): Dropout(p=0.0, inplace=False)
      )
      (third_attn_norm0): LayerNorm((512,), eps=1e-06, elementwise_affine=True)
      (third_attn_norm1): LayerNorm((512,), eps=1e-06, elementwise_affine=True)
      (third_attn): GeneralAttention(
        (q): Linear(in_features=512, out_features=512, bias=False)
        (kv): Linear(in_features=512, out_features=1024, bias=False)
        (attn_drop): Dropout(p=0.0, inplace=False)
        (proj): Linear(in_features=512, out_features=512, bias=True)
        (proj_drop): Dropout(p=0.0, inplace=False)
      )
      (drop_path): DropPath(p=0.03999999910593033)
      (norm2): LayerNorm((512,), eps=1e-06, elementwise_affine=True)
      (mlp): Mlp(
        (fc1): Linear(in_features=512, out_features=2048, bias=True)
        (act): GELU()
        (fc2): Linear(in_features=2048, out_features=512, bias=True)
        (drop): Dropout(p=0.0, inplace=False)
      )
    )
    (7): LGBlock(
      (first_attn_norm0): LayerNorm((512,), eps=1e-06, elementwise_affine=True)
      (first_attn): GeneralAttention(
        (q): Linear(in_features=512, out_features=512, bias=False)
        (kv): Linear(in_features=512, out_features=1024, bias=False)
        (attn_drop): Dropout(p=0.0, inplace=False)
        (proj): Linear(in_features=512, out_features=512, bias=True)
        (proj_drop): Dropout(p=0.0, inplace=False)
      )
      (second_attn_norm0): LayerNorm((512,), eps=1e-06, elementwise_affine=True)
      (second_attn): GeneralAttention(
        (q): Linear(in_features=512, out_features=512, bias=False)
        (kv): Linear(in_features=512, out_features=1024, bias=False)
        (attn_drop): Dropout(p=0.0, inplace=False)
        (proj): Linear(in_features=512, out_features=512, bias=True)
        (proj_drop): Dropout(p=0.0, inplace=False)
      )
      (third_attn_norm0): LayerNorm((512,), eps=1e-06, elementwise_affine=True)
      (third_attn_norm1): LayerNorm((512,), eps=1e-06, elementwise_affine=True)
      (third_attn): GeneralAttention(
        (q): Linear(in_features=512, out_features=512, bias=False)
        (kv): Linear(in_features=512, out_features=1024, bias=False)
        (attn_drop): Dropout(p=0.0, inplace=False)
        (proj): Linear(in_features=512, out_features=512, bias=True)
        (proj_drop): Dropout(p=0.0, inplace=False)
      )
      (drop_path): DropPath(p=0.046666666865348816)
      (norm2): LayerNorm((512,), eps=1e-06, elementwise_affine=True)
      (mlp): Mlp(
        (fc1): Linear(in_features=512, out_features=2048, bias=True)
        (act): GELU()
        (fc2): Linear(in_features=2048, out_features=512, bias=True)
        (drop): Dropout(p=0.0, inplace=False)
      )
    )
    (8): LGBlock(
      (first_attn_norm0): LayerNorm((512,), eps=1e-06, elementwise_affine=True)
      (first_attn): GeneralAttention(
        (q): Linear(in_features=512, out_features=512, bias=False)
        (kv): Linear(in_features=512, out_features=1024, bias=False)
        (attn_drop): Dropout(p=0.0, inplace=False)
        (proj): Linear(in_features=512, out_features=512, bias=True)
        (proj_drop): Dropout(p=0.0, inplace=False)
      )
      (second_attn_norm0): LayerNorm((512,), eps=1e-06, elementwise_affine=True)
      (second_attn): GeneralAttention(
        (q): Linear(in_features=512, out_features=512, bias=False)
        (kv): Linear(in_features=512, out_features=1024, bias=False)
        (attn_drop): Dropout(p=0.0, inplace=False)
        (proj): Linear(in_features=512, out_features=512, bias=True)
        (proj_drop): Dropout(p=0.0, inplace=False)
      )
      (third_attn_norm0): LayerNorm((512,), eps=1e-06, elementwise_affine=True)
      (third_attn_norm1): LayerNorm((512,), eps=1e-06, elementwise_affine=True)
      (third_attn): GeneralAttention(
        (q): Linear(in_features=512, out_features=512, bias=False)
        (kv): Linear(in_features=512, out_features=1024, bias=False)
        (attn_drop): Dropout(p=0.0, inplace=False)
        (proj): Linear(in_features=512, out_features=512, bias=True)
        (proj_drop): Dropout(p=0.0, inplace=False)
      )
      (drop_path): DropPath(p=0.0533333346247673)
      (norm2): LayerNorm((512,), eps=1e-06, elementwise_affine=True)
      (mlp): Mlp(
        (fc1): Linear(in_features=512, out_features=2048, bias=True)
        (act): GELU()
        (fc2): Linear(in_features=2048, out_features=512, bias=True)
        (drop): Dropout(p=0.0, inplace=False)
      )
    )
    (9): LGBlock(
      (first_attn_norm0): LayerNorm((512,), eps=1e-06, elementwise_affine=True)
      (first_attn): GeneralAttention(
        (q): Linear(in_features=512, out_features=512, bias=False)
        (kv): Linear(in_features=512, out_features=1024, bias=False)
        (attn_drop): Dropout(p=0.0, inplace=False)
        (proj): Linear(in_features=512, out_features=512, bias=True)
        (proj_drop): Dropout(p=0.0, inplace=False)
      )
      (second_attn_norm0): LayerNorm((512,), eps=1e-06, elementwise_affine=True)
      (second_attn): GeneralAttention(
        (q): Linear(in_features=512, out_features=512, bias=False)
        (kv): Linear(in_features=512, out_features=1024, bias=False)
        (attn_drop): Dropout(p=0.0, inplace=False)
        (proj): Linear(in_features=512, out_features=512, bias=True)
        (proj_drop): Dropout(p=0.0, inplace=False)
      )
      (third_attn_norm0): LayerNorm((512,), eps=1e-06, elementwise_affine=True)
      (third_attn_norm1): LayerNorm((512,), eps=1e-06, elementwise_affine=True)
      (third_attn): GeneralAttention(
        (q): Linear(in_features=512, out_features=512, bias=False)
        (kv): Linear(in_features=512, out_features=1024, bias=False)
        (attn_drop): Dropout(p=0.0, inplace=False)
        (proj): Linear(in_features=512, out_features=512, bias=True)
        (proj_drop): Dropout(p=0.0, inplace=False)
      )
      (drop_path): DropPath(p=0.06000000238418579)
      (norm2): LayerNorm((512,), eps=1e-06, elementwise_affine=True)
      (mlp): Mlp(
        (fc1): Linear(in_features=512, out_features=2048, bias=True)
        (act): GELU()
        (fc2): Linear(in_features=2048, out_features=512, bias=True)
        (drop): Dropout(p=0.0, inplace=False)
      )
    )
    (10): LGBlock(
      (first_attn_norm0): LayerNorm((512,), eps=1e-06, elementwise_affine=True)
      (first_attn): GeneralAttention(
        (q): Linear(in_features=512, out_features=512, bias=False)
        (kv): Linear(in_features=512, out_features=1024, bias=False)
        (attn_drop): Dropout(p=0.0, inplace=False)
        (proj): Linear(in_features=512, out_features=512, bias=True)
        (proj_drop): Dropout(p=0.0, inplace=False)
      )
      (second_attn_norm0): LayerNorm((512,), eps=1e-06, elementwise_affine=True)
      (second_attn): GeneralAttention(
        (q): Linear(in_features=512, out_features=512, bias=False)
        (kv): Linear(in_features=512, out_features=1024, bias=False)
        (attn_drop): Dropout(p=0.0, inplace=False)
        (proj): Linear(in_features=512, out_features=512, bias=True)
        (proj_drop): Dropout(p=0.0, inplace=False)
      )
      (third_attn_norm0): LayerNorm((512,), eps=1e-06, elementwise_affine=True)
      (third_attn_norm1): LayerNorm((512,), eps=1e-06, elementwise_affine=True)
      (third_attn): GeneralAttention(
        (q): Linear(in_features=512, out_features=512, bias=False)
        (kv): Linear(in_features=512, out_features=1024, bias=False)
        (attn_drop): Dropout(p=0.0, inplace=False)
        (proj): Linear(in_features=512, out_features=512, bias=True)
        (proj_drop): Dropout(p=0.0, inplace=False)
      )
      (drop_path): DropPath(p=0.06666667014360428)
      (norm2): LayerNorm((512,), eps=1e-06, elementwise_affine=True)
      (mlp): Mlp(
        (fc1): Linear(in_features=512, out_features=2048, bias=True)
        (act): GELU()
        (fc2): Linear(in_features=2048, out_features=512, bias=True)
        (drop): Dropout(p=0.0, inplace=False)
      )
    )
    (11): LGBlock(
      (first_attn_norm0): LayerNorm((512,), eps=1e-06, elementwise_affine=True)
      (first_attn): GeneralAttention(
        (q): Linear(in_features=512, out_features=512, bias=False)
        (kv): Linear(in_features=512, out_features=1024, bias=False)
        (attn_drop): Dropout(p=0.0, inplace=False)
        (proj): Linear(in_features=512, out_features=512, bias=True)
        (proj_drop): Dropout(p=0.0, inplace=False)
      )
      (second_attn_norm0): LayerNorm((512,), eps=1e-06, elementwise_affine=True)
      (second_attn): GeneralAttention(
        (q): Linear(in_features=512, out_features=512, bias=False)
        (kv): Linear(in_features=512, out_features=1024, bias=False)
        (attn_drop): Dropout(p=0.0, inplace=False)
        (proj): Linear(in_features=512, out_features=512, bias=True)
        (proj_drop): Dropout(p=0.0, inplace=False)
      )
      (third_attn_norm0): LayerNorm((512,), eps=1e-06, elementwise_affine=True)
      (third_attn_norm1): LayerNorm((512,), eps=1e-06, elementwise_affine=True)
      (third_attn): GeneralAttention(
        (q): Linear(in_features=512, out_features=512, bias=False)
        (kv): Linear(in_features=512, out_features=1024, bias=False)
        (attn_drop): Dropout(p=0.0, inplace=False)
        (proj): Linear(in_features=512, out_features=512, bias=True)
        (proj_drop): Dropout(p=0.0, inplace=False)
      )
      (drop_path): DropPath(p=0.07333333790302277)
      (norm2): LayerNorm((512,), eps=1e-06, elementwise_affine=True)
      (mlp): Mlp(
        (fc1): Linear(in_features=512, out_features=2048, bias=True)
        (act): GELU()
        (fc2): Linear(in_features=2048, out_features=512, bias=True)
        (drop): Dropout(p=0.0, inplace=False)
      )
    )
    (12): LGBlock(
      (first_attn_norm0): LayerNorm((512,), eps=1e-06, elementwise_affine=True)
      (first_attn): GeneralAttention(
        (q): Linear(in_features=512, out_features=512, bias=False)
        (kv): Linear(in_features=512, out_features=1024, bias=False)
        (attn_drop): Dropout(p=0.0, inplace=False)
        (proj): Linear(in_features=512, out_features=512, bias=True)
        (proj_drop): Dropout(p=0.0, inplace=False)
      )
      (second_attn_norm0): LayerNorm((512,), eps=1e-06, elementwise_affine=True)
      (second_attn): GeneralAttention(
        (q): Linear(in_features=512, out_features=512, bias=False)
        (kv): Linear(in_features=512, out_features=1024, bias=False)
        (attn_drop): Dropout(p=0.0, inplace=False)
        (proj): Linear(in_features=512, out_features=512, bias=True)
        (proj_drop): Dropout(p=0.0, inplace=False)
      )
      (third_attn_norm0): LayerNorm((512,), eps=1e-06, elementwise_affine=True)
      (third_attn_norm1): LayerNorm((512,), eps=1e-06, elementwise_affine=True)
      (third_attn): GeneralAttention(
        (q): Linear(in_features=512, out_features=512, bias=False)
        (kv): Linear(in_features=512, out_features=1024, bias=False)
        (attn_drop): Dropout(p=0.0, inplace=False)
        (proj): Linear(in_features=512, out_features=512, bias=True)
        (proj_drop): Dropout(p=0.0, inplace=False)
      )
      (drop_path): DropPath(p=0.07999999821186066)
      (norm2): LayerNorm((512,), eps=1e-06, elementwise_affine=True)
      (mlp): Mlp(
        (fc1): Linear(in_features=512, out_features=2048, bias=True)
        (act): GELU()
        (fc2): Linear(in_features=2048, out_features=512, bias=True)
        (drop): Dropout(p=0.0, inplace=False)
      )
    )
    (13): LGBlock(
      (first_attn_norm0): LayerNorm((512,), eps=1e-06, elementwise_affine=True)
      (first_attn): GeneralAttention(
        (q): Linear(in_features=512, out_features=512, bias=False)
        (kv): Linear(in_features=512, out_features=1024, bias=False)
        (attn_drop): Dropout(p=0.0, inplace=False)
        (proj): Linear(in_features=512, out_features=512, bias=True)
        (proj_drop): Dropout(p=0.0, inplace=False)
      )
      (second_attn_norm0): LayerNorm((512,), eps=1e-06, elementwise_affine=True)
      (second_attn): GeneralAttention(
        (q): Linear(in_features=512, out_features=512, bias=False)
        (kv): Linear(in_features=512, out_features=1024, bias=False)
        (attn_drop): Dropout(p=0.0, inplace=False)
        (proj): Linear(in_features=512, out_features=512, bias=True)
        (proj_drop): Dropout(p=0.0, inplace=False)
      )
      (third_attn_norm0): LayerNorm((512,), eps=1e-06, elementwise_affine=True)
      (third_attn_norm1): LayerNorm((512,), eps=1e-06, elementwise_affine=True)
      (third_attn): GeneralAttention(
        (q): Linear(in_features=512, out_features=512, bias=False)
        (kv): Linear(in_features=512, out_features=1024, bias=False)
        (attn_drop): Dropout(p=0.0, inplace=False)
        (proj): Linear(in_features=512, out_features=512, bias=True)
        (proj_drop): Dropout(p=0.0, inplace=False)
      )
      (drop_path): DropPath(p=0.08666667342185974)
      (norm2): LayerNorm((512,), eps=1e-06, elementwise_affine=True)
      (mlp): Mlp(
        (fc1): Linear(in_features=512, out_features=2048, bias=True)
        (act): GELU()
        (fc2): Linear(in_features=2048, out_features=512, bias=True)
        (drop): Dropout(p=0.0, inplace=False)
      )
    )
    (14): LGBlock(
      (first_attn_norm0): LayerNorm((512,), eps=1e-06, elementwise_affine=True)
      (first_attn): GeneralAttention(
        (q): Linear(in_features=512, out_features=512, bias=False)
        (kv): Linear(in_features=512, out_features=1024, bias=False)
        (attn_drop): Dropout(p=0.0, inplace=False)
        (proj): Linear(in_features=512, out_features=512, bias=True)
        (proj_drop): Dropout(p=0.0, inplace=False)
      )
      (second_attn_norm0): LayerNorm((512,), eps=1e-06, elementwise_affine=True)
      (second_attn): GeneralAttention(
        (q): Linear(in_features=512, out_features=512, bias=False)
        (kv): Linear(in_features=512, out_features=1024, bias=False)
        (attn_drop): Dropout(p=0.0, inplace=False)
        (proj): Linear(in_features=512, out_features=512, bias=True)
        (proj_drop): Dropout(p=0.0, inplace=False)
      )
      (third_attn_norm0): LayerNorm((512,), eps=1e-06, elementwise_affine=True)
      (third_attn_norm1): LayerNorm((512,), eps=1e-06, elementwise_affine=True)
      (third_attn): GeneralAttention(
        (q): Linear(in_features=512, out_features=512, bias=False)
        (kv): Linear(in_features=512, out_features=1024, bias=False)
        (attn_drop): Dropout(p=0.0, inplace=False)
        (proj): Linear(in_features=512, out_features=512, bias=True)
        (proj_drop): Dropout(p=0.0, inplace=False)
      )
      (drop_path): DropPath(p=0.09333333373069763)
      (norm2): LayerNorm((512,), eps=1e-06, elementwise_affine=True)
      (mlp): Mlp(
        (fc1): Linear(in_features=512, out_features=2048, bias=True)
        (act): GELU()
        (fc2): Linear(in_features=2048, out_features=512, bias=True)
        (drop): Dropout(p=0.0, inplace=False)
      )
    )
    (15): LGBlock(
      (first_attn_norm0): LayerNorm((512,), eps=1e-06, elementwise_affine=True)
      (first_attn): GeneralAttention(
        (q): Linear(in_features=512, out_features=512, bias=False)
        (kv): Linear(in_features=512, out_features=1024, bias=False)
        (attn_drop): Dropout(p=0.0, inplace=False)
        (proj): Linear(in_features=512, out_features=512, bias=True)
        (proj_drop): Dropout(p=0.0, inplace=False)
      )
      (second_attn_norm0): LayerNorm((512,), eps=1e-06, elementwise_affine=True)
      (second_attn): GeneralAttention(
        (q): Linear(in_features=512, out_features=512, bias=False)
        (kv): Linear(in_features=512, out_features=1024, bias=False)
        (attn_drop): Dropout(p=0.0, inplace=False)
        (proj): Linear(in_features=512, out_features=512, bias=True)
        (proj_drop): Dropout(p=0.0, inplace=False)
      )
      (third_attn_norm0): LayerNorm((512,), eps=1e-06, elementwise_affine=True)
      (third_attn_norm1): LayerNorm((512,), eps=1e-06, elementwise_affine=True)
      (third_attn): GeneralAttention(
        (q): Linear(in_features=512, out_features=512, bias=False)
        (kv): Linear(in_features=512, out_features=1024, bias=False)
        (attn_drop): Dropout(p=0.0, inplace=False)
        (proj): Linear(in_features=512, out_features=512, bias=True)
        (proj_drop): Dropout(p=0.0, inplace=False)
      )
      (drop_path): DropPath(p=0.10000000149011612)
      (norm2): LayerNorm((512,), eps=1e-06, elementwise_affine=True)
      (mlp): Mlp(
        (fc1): Linear(in_features=512, out_features=2048, bias=True)
        (act): GELU()
        (fc2): Linear(in_features=2048, out_features=512, bias=True)
        (drop): Dropout(p=0.0, inplace=False)
      )
    )
  )
  (norm): Identity()
  (fc_norm): LayerNorm((512,), eps=1e-06, elementwise_affine=True)
  (head): Linear(in_features=512, out_features=7, bias=True)
  (head_activation_func): Identity()
)
number of params: 84878343
LR = 0.00046875
Batch size = 120
Update frequent = 1
Number of training examples = 31088
Number of training training per epoch = 259
Assigned values = [… Skip weight decay list:  {'pos_embed', 'lg_region_tokens', 'part_tokens', 'cls_token'}
Param groups = {
  "layer_17_no_decay": {
    "weight_decay": 0.0,
…
